ConvNetState.ckpt (torch_old, 179592 bytes, 6 tensors)

layer1.0.weight f4 [16, 2, 11]
-0.106202975 0.14178948 -0.1737813 -0.5464244 -0.58129054 -0.11531992 -0.019561049 -0.81170774
-0.62156963 -0.036004003 -0.8899018 0.2647251 0.10447647 0.106826425 0.018480876 -0.4034105
-0.114717506 0.2018768 -0.8736189 0.9097683 0.2429462 0.055645045 0.047405217 -0.119287655
0.022142954 0.06614142 -0.11660504 0.2872203 -0.3402577 -0.35947025 -0.40801248 0.12122176
0.16333412 -0.003926594 -0.18174845 -0.3246936 -0.58278066 -0.809077 -0.18793836 -0.29541922
-0.01825945 -0.016249837 0.065574445 -1.0481606 -0.54751617 -0.27316195 -0.34347352 -0.56350523
-0.10412783 -0.42814752 -0.5403303 -0.3226739 -0.63176733 -0.8094189 -0.25093696 -0.8813649
-0.25880927 -0.29866 -0.48118007 -0.45577627 -0.45164552 -0.20204033 -0.37516603 1.1028067
-0.38152537 0.5215998 -0.29852846 0.16748667 0.01577346 -0.118386075 -0.045797974 0.2049011
-0.053614616 0.15994278 -0.25511733 0.14348328 -0.20572545 -0.19921474 -0.11335209 0.13649932
-0.32571805 -0.2550592 -0.53494525 -0.15782607 -0.15206727 -0.072695695 0.13702255 0.122559786
-0.4046663 0.298397 0.098700844 -0.7767567 -0.7068802 -0.4345512 -0.29082108 -0.6684452
-0.7335226 -0.19922765 -0.52184415 -0.486712 -0.2582226 0.15987565 -0.740064 1.0142554
0.7828317 0.39558113 -0.7388663 -0.3061684 -0.08989107 -0.52750736 -0.35112286 -0.08560384
-0.9279931 -1.0319405 -0.040048584 -1.303133 0.017412268 -0.75808 -1.031138 -0.013593753
-0.21977906 0.8066426 0.085408024 -0.6684996 -0.77200675 0.07470627 0.51968336 0.3541722
-0.8166727 -0.2653568 -0.72045654 -0.37407753 -0.3742129 0.21678373 -0.35797292 0.14542598
0.055095825 -0.12785585 -0.273772 -0.049809344 -0.1774493 -0.0044738785 -0.30308628 -0.2361028
-0.10313929 -0.25820884 0.058186043 -0.003584895 -0.3829077 -0.15705362 -0.13026328 -0.07323339
-0.14341673 0.060028914 -0.26415825 -0.14123416 -0.6218924 -0.7480758 -0.5646607 -0.41008404
-0.7085384 0.40460318 -0.57335865 -0.7827248 -0.67664546 -0.56952536 -0.72149956 -0.8403365
-0.46245667 0.7130152 -0.0844086 1.1408283 -0.12688948 0.35421562 -0.57908773 -0.62810034
-0.3370595 -0.34009778 -0.18937342 -0.26873466 -0.31008023 -0.13707775 -0.27911967 -0.2548836
-0.22678934 0.025981264 0.3300934 -0.38583803 0.033473346 -0.17356335 0.09534295 -0.09736156
-0.32738137 -0.3814232 -0.14354318 -0.56069654 -0.3344158 -2.088991 0.19754128 -0.06743459
-0.0834304 -0.14679632 -0.14226165 0.15593225 -0.22138791 0.50813687 0.04547616 0.18187322
0.17233966 -0.160444 -0.31009728 -0.10423871 0.0176768 0.05661514 0.0320902 -0.22204383
-0.09120836 -0.402178 -0.430478 -0.72325116 -0.0027061035 -0.15037182 -0.16690738 -0.15817353
-0.2151697 -0.01460697 -0.16500065 -0.19241352 -0.004230929 -0.10966137 -0.26248518 -0.16078202
-0.14239009 -0.13749407 -0.28226435 -0.028099539 -0.036364842 -0.045834888 -0.007815577 -0.1719973
-0.198651 -0.17387658 -0.017733574 0.107589014 0.061143126 0.09551864 -0.013575638 0.10809831
0.19846328 0.089563094 -0.0011208181 0.19060636 0.07039949 0.20433287 -0.0062387255 0.17658588
00000000: f280 d9bd 4331 113e baf3 31be 78e2 0bbf
00000010: 75cf 14bf da2c ecbd 7e3e a0bc 14cc 4fbf
00000020: 301f 1fbf ef78 13bd 9bd0 63bf 0c8a 873e
00000030: c2f7 d53d d0c7 da3d 3565 973c d28b cebe
00000040: 03f1 eabd cbb8 4e3e 7da5 5fbf 93e6 683f
00000050: e3c6 783e 0fec 633d f92b 423d 164d f4bd
00000060: 2465 b53c 2775 873d a0ce eebd 8a0e 933e
00000070: 4236 aebe 7c0c b8be 03e7 d0be 1d43 f83d
00000080: 0f41 273e a8aa 80bb 441c 3abe 3d3e a6be
00000090: 1d31 15bf ac1f 4fbf ea72 40be 3041 97be
000000a0: d894 95bc 611e 85bc e54b 863d 202a 86bf
000000b0: 052a 0cbf e2db 8bbe c3db afbe e141 10bf
000000c0: f940 d5bd 2736 dbbe 1653 0abf 8335 a5be
000000d0: 81bb 21bf 1436 4fbf cf7a 80be 21a1 61bf
000000e0: a682 84be f7e9 98be 3c5d f6be 825b e9be
000000f0: 153e e7be a9e3 4ebe c315 c0be c528 8d3f
00000100: 4b57 c3be 9187 053f b9d8 98be a081 2b3e
00000110: 5837 813c 6674 f2bd a896 3bbd 98d1 513e
00000120: 009b 5bbd 0ac8 233e bd9e 82be 48ed 123e
00000130: b1a9 52be f3fe 4bbe 2425 e8bd 7ac6 0b3e
00000140: 84c4 a6be 1f97 82be 2cf2 08bf 289d 21be
00000150: 86b7 1bbe 7be1 94bd a44f 0c3e a000 fb3d
00000160: 6c30 cfbe 7ec7 983e ab23 ca3d 87d9 46bf
00000170: 1af6 34bf 7f7d debe 80e6 94be 3a1f 2bbf
00000180: 23c8 3bbf 5502 4cbe 9497 05bf 5132 f9be
00000190: c135 84be 71b6 233e d674 3dbf 1fd3 813f
000001a0: a967 483f 9c89 ca3e 5826 3dbf 1bc2 9cbe
000001b0: cf18 b8bd b90a 07bf 60c6 b3be 1151 afbd
000001c0: f590 6dbf a016 84bf fc09 24bd 10cd a6bf
000001d0: 2ca4 8e3c 8811 42bf 54fc 83bf 55b8 5ebc
000001e0: c30d 61be 2180 4e3f 67ea ae3d ca22 2bbf
000001f0: 3ca2 45bf 9aff 983d f809 053f 0f56 b53e
00000200: 7611 51bf d9dc 87be d76f 38bf 1787 bfbe
00000210: d598 bfbe 8efc 5d3e 3a48 b7be 8cea 143e
00000220: 29ac 613d a5ec 02be d82b 8cbe e204 4cbd
00000230: 45b5 35be 9d99 92bb 202e 9bbe efc4 71be
00000240: b13a d3bd f333 84be 7d54 6e3d 8ff0 6abb
00000250: 7a0c c4be aad2 20be bd63 05be 63fb 95bd
00000260: d6db 12be e1e0 753d c03f 87be b09f 10be
00000270: 5734 1fbf e581 3fbf 9b8d 10bf 89f6 d1be
00000280: c662 35bf 2628 cf3e a2c7 12bf a760 48bf
00000290: a338 2dbf 6acc 11bf 32b4 38bf 4b20 57bf
000002a0: 1fc7 ecbe 2a88 363f 6bde acbd a906 923f
000002b0: 51ef 01be c05b b53e 183f 14bf 2fcb 20bf
000002c0: 1093 acbe 4c21 aebe 1beb 41be 9797 89be
000002d0: d6c2 9ebe 1c5e 0cbe c6e8 8ebe 1a80 82be
000002e0: 773b 68be a9d6 d43c 0102 a93e 908c c5be
000002f0: 591b 093d 97ba 31be 2a43 c33d 7f65 c7bd
00000300: 889e a7be e749 c3be fcfc 12be cf89 0fbf
00000310: 8c38 abbe 07b2 05c0 4348 4a3e 251b 8abd
00000320: 8fdd aabd c651 16be 0aad 11be b4ac 1f3e
00000330: 83b3 62be 4215 023f 3645 3a3d f93c 3a3e
00000340: cf79 303e 6f4b 24be 12c5 9ebe 1b7b d5bd
00000350: f0ce 903c 47e5 673d 0371 033d 755f 63be
00000360: 73cb babd 46ea cdbe 9d67 dcbe fd26 39bf
00000370: e258 31bb 12fb 19be c5e9 2abe 3ef8 21be
00000380: 7255 5cbe 1352 6fbc eef5 28be 0d08 45be
00000390: 9ba3 8abb 2496 e0bd 7564 86be 0ba4 24be
000003a0: b5ce 11be 3fcb 0cbe f484 90be 0131 e6bc
000003b0: 4df3 14bd 5dbd 3bbd e80c 00bc 0f20 30be
000003c0: 2b6b 4bbe b40c 32be 0046 91bc a157 dc3d
000003d0: 3771 7a3d 479f c33d 5a6c 5ebc a662 dd3d
000003e0: f539 4b3e db6c b73d 6ae8 92ba 502e 433e
000003f0: 9c2d 903d a33c 513e 396e ccbb eed2 343e

layer1.0.bias f4 [16]
-2.3515608 -0.0023131236 -0.01329311 -1.0125488 -2.0148532 -4.636922 -0.7522281 -0.0015715599
-1.9097486 -3.0418596 0.07969548 -5.6999984 -0.30157354 -0.3075155 -4.5519457 -0.30347225
00000000: f97f 16c0 c697 17bb 58cb 59bc 339b 81bf
00000010: 5bf3 00c0 aa61 94c0 0592 40bf cdfc cdba
00000020: a472 f4bf d4ad 42c0 6237 a33d 6366 b6c0
00000030: d967 9abe ac72 9dbe 8aa9 91c0 b760 9bbe

layer2.0.weight f4 [32, 16, 11]
-0.2531808 -0.4610701 -0.4824571 -0.26766 -0.37963608 -0.36759904 -0.8515751 -0.03348088
0.026482802 -0.086841874 -0.19604598 -0.3174894 -0.17918238 -0.101719335 -0.122564636 -0.09916682
0.029412717 -0.32443026 0.12617356 0.0008931542 -0.54531795 -0.23514448 -0.29600245 -0.32280362
-0.25417653 -0.37621224 -0.8397719 -1.039921 -0.977398 -0.059851814 0.033876985 -0.2677119
0.61860037 -0.24308309 -0.3427769 -0.14615692 0.102353446 -0.074094646 -0.14421546 -0.28336558
-0.33724535 -0.22573514 -0.25738987 0.048074268 -0.6217876 -1.0108845 -0.638535 -0.5459928
-0.31700683 0.29613551 -0.12118452 -0.19968309 0.7170308 0.029850025 -0.038037784 -0.80839694
-0.19203746 0.016611533 -0.5695109 -0.61431545 -0.8515219 -0.2270801 -0.048586372 -0.18222874
-0.31418404 -0.27983788 -0.056667387 -0.098168336 -0.16918832 -0.068036735 -0.00050291163 -0.0005701728
0.2595667 -0.032670546 -0.11098015 0.10909841 0.05113417 0.30527824 0.5146121 -0.22043699
-0.23138475 0.13770182 0.17316388 0.0669946 -0.211346 -0.06499902 0.018996034 -0.009901281
-0.0060071982 0.113224186 0.2606142 -0.46950376 -0.5872331 -0.8653048 -1.7113419 -3.6668987
-3.7396343 -0.740812 -0.52801806 -0.09679102 -0.054310415 -0.038724467 0.064688936 0.034000307
-0.16967195 -0.24361454 0.046984464 0.106031 0.07402883 -0.035091028 0.4736508 0.080231145
0.0607722 0.077163994 0.022377638 0.006049673 -0.01794558 -0.046784915 0.018350491 0.59068716
-0.07445478 -0.1434544 -0.12865849 -0.12291777 -0.1273422 -0.110918276 -0.089419976 -0.09478289
-0.071937315 -0.008737405 -0.017265575 -0.015729224 -0.17483117 -0.19437209 -0.1998317 -0.21479905
-0.20376585 -0.19189832 -0.21901606 -0.19972293 -0.18253745 -0.056704197 0.08328051 -0.5011554
-0.13926077 -0.11838953 -0.105129965 -0.69562507 0.5403427 -0.004512631 0.07596805 0.38376892
-0.58069915 -0.019878915 -0.7299428 0.1773679 -0.16995096 -0.25523633 -0.34551075 -1.074132
-0.20330372 -0.2925738 -0.40011027 -0.5175154 -0.0950656 -0.18748318 -0.2473105 -0.3111413
-0.34881222 -0.17245084 -0.28842247 -0.46340874 -0.40701625 -0.7226726 -0.8027112 0.6088199
-0.17512245 -0.15640911 -0.15852048 -0.56295604 -0.42556885 -0.31636244 -0.25358742 -0.22892946
-0.4488651 -0.45445135 -0.24230208 -0.15510161 -0.131484 0.01038704 0.1012781 0.22376159
0.19655389 0.2643247 0.25569886 0.21768057 0.13639177 -0.10968101 0.38836616 0.41249168
0.3359147 0.23577286 0.2602583 0.025121437 0.3028628 0.1660962 0.04223246 -0.055734687
-0.34202072 -0.3783745 -0.010812051 -0.11220498 -0.10911311 -0.113356374 -0.367094 -0.27912852
-0.50770247 -0.49008507 -0.37578022 -0.20598538 -0.6419826 -0.24536374 -0.100046195 -0.2882363
-0.12175126 -0.32549116 -0.08441915 -0.11663004 -0.09369071 -0.035789143 -0.0069524203 -0.34764734
-0.43244317 -0.2817253 -0.23787734 -0.30239257 -0.07383537 -0.10265692 -0.28751338 -0.20350114
-0.15485065 -0.1726403 -0.083938845 -0.04311466 -0.114136204 -0.0575472 -0.069597155 -0.14725675
-0.092182636 -0.11472177 -0.05310842 -0.09377374 -0.037633263 0.012119474 -0.0041290917 0.024852162
00000000: eaa0 81be 6111 ecbe 9e04 f7be bb0a 89be
00000010: a95f c2be f135 bcbe d300 5abf 3f23 09bd
00000020: 76f2 d83c 27da b1bd 47c0 48be f88d a2be
00000030: 967b 37be 3a52 d0bd 2b03 fbbd f917 cbbd
00000040: f0f2 f03c b91b a6be a433 013e 9022 6a3a
00000050: f599 0bbf b7c9 70be a28d 97be 8446 a5be
00000060: 6d23 82be e49e c0be 4bfb 56bf 221c 85bf
00000070: c136 7abf 2d27 75bd 98c2 0a3d 8911 89be
00000080: 985c 1e3f c6ea 78be 7480 afbe 29aa 15be
00000090: af9e d13d efbe 97bd 38ad 13be 4b15 91be
000000a0: 6cab acbe 1d27 67be 9bc8 83be 86e9 443d
000000b0: 792d 1fbf aa64 81bf 0877 23bf 2fc6 0bbf
000000c0: b84e a2be 139f 973e 972f f8bd b979 4cbe
000000d0: 558f 373f 0a88 f43c 82cd 1bbd 1af3 4ebf
000000e0: 78a5 44be e914 883c 77cb 11bf c743 1dbf
000000f0: 57fd 59bf b087 68be 8102 47bd 2c9a 3abe
00000100: bbdc a0be e946 8fbe 101c 68bd 7b0c c9bd
00000110: b43f 2dbe d856 8bbd d4d5 03ba a677 15ba
00000120: ede5 843e 8dd1 05bd 9049 e3bd fd6e df3d
00000130: 1072 513d 6e4d 9c3e 9ebd 033f 3cba 61be
00000140: 20f0 6cbe b501 0d3e df51 313e 7734 893d
00000150: 166b 58be 351e 85bd 929d 9b3c fc38 22bc
00000160: 08d8 c4bb 15e2 e73d 396f 853e cc62 f0be
00000170: e954 16bf 9e84 5dbf 400d dbbf 78ae 6ac0
00000180: 2b56 6fc0 dba5 3dbf 312c 07bf 5f3a c6bd
00000190: 9974 5ebd 8c9d 1ebd a27b 843d e843 0b3d
000001a0: 7cbe 2dbe 1776 79be c872 403d c826 d93d
000001b0: 6d9c 973d 9cbb 0fbd 5c82 f23e 3a50 a43d
000001c0: 45ec 783d 2808 9e3d 4f51 b73c 563c c63b
000001d0: 9c02 93bc 8aa1 3fbd c553 963c 4637 173f
000001e0: bf7b 98bd b6e5 12be 0dbf 03be 50bc fbbd
000001f0: fe65 02be 1f29 e3bd d221 b7bd 881d c2bd
00000200: df53 93bd 5527 0fbc 8970 8dbc 93da 80bc
00000210: f106 33be 7a09 47be aea0 4cbe 48f4 5bbe
00000220: ffa7 50be fe80 44be bf45 60be 2b84 4cbe
00000230: 19eb 3abe a942 68bd f98e aa3d b84b 00bf
00000240: 609a 0ebe 3676 f2bd 614e d7bd 7c14 32bf
00000250: e653 0a3f b1de 93bb 2395 9b3d 5c7d c43e
00000260: b3a8 14bf 1bd9 a2bc 88dd 3abf ee9f 353e
00000270: a007 2ebe 56ae 82be c9e6 b0be 287d 89bf
00000280: da2e 50be 3ccc 95be 41db ccbe e47b 04bf
00000290: c1b1 c2bd 97fb 3fbe f73e 7dbe ea4d 9fbe
000002a0: 8497 b2be f496 30be 1cac 93be e943 edbe
000002b0: 6f64 d0be 1201 39bf 7b7e 4dbf 9fdb 1b3f
000002c0: 4d53 33be b629 20be 3153 22be e31d 10bf
000002d0: 29e4 d9be 42fa a1be 36d6 81be 7c6c 6abe
000002e0: a5d1 e5be d9ad e8be 091e 78be f5d2 1ebe
000002f0: bea3 06be 672e 2a3c e46a cf3d c221 653e
00000300: 6c45 493e 9155 873e f6ea 823e a8e7 5e3e
00000310: 49aa 0b3e 70a0 e0bd eed7 c63e 1c32 d33e
00000320: 03fd ab3e 716e 713e 9340 853e 79cb cd3c
00000330: d510 9b3e 1f15 2a3e f2fb 2c3d 0e4a 64bd
00000340: 571d afbe 4dba c1be 0725 31bc b9cb e5bd
00000350: b276 dfbd 6327 e8bd bff3 bbbe efe9 8ebe
00000360: caf8 01bf 6eec fabe 4466 c0be d5ed 52be
00000370: f958 24bf a240 7bbe 05e5 ccbd b593 93be
00000380: b958 f9bd c7a6 a6be f3e3 acbd bbdb eebd
00000390: eae0 bfbd a397 12bd 21d1 e3bb d5fe b1be
000003a0: 3169 ddbe 4c3e 90be 1e96 73be 33d3 9abe
000003b0: 0037 97bd cb3d d2bd f434 93be 9a62 50be
000003c0: 2b91 1ebe 9ec8 30be 21e8 abbd ff98 30bd
000003d0: 3ec0 e9bd 9db6 6bbd f488 8ebd 79ca 16be
000003e0: 40ca bcbd 3ff3 eabd 3788 59bd 720c c0bd
000003f0: 5625 1abd c290 463c 554d 87bb c396 cb3c

layer2.0.bias f4 [32]
1.1821464 1.1160023 1.2116966 0.6670725 -0.12885651 1.2835029 -0.23311003 1.1022487
0.9600149 -0.67102 -0.45418593 0.037464537 -0.09464835 -0.48752975 0.95829445 -0.10224328
1.0168189 1.0494198 -0.04045697 -0.13816264 1.0834551 -3.1354964 -0.01727617 -0.11497067
-0.16940132 1.2070329 -0.11284414 1.0650778 0.15752354 0.12159083 -4.7554317 -0.45377472
00000000: 9350 973f 2ad9 8e3f e018 9b3f 43c5 2a3f
00000010: f6f2 03be d349 a43f 65b4 6ebe 7c16 8d3f
00000020: 89c3 753f f7c7 2bbf 0f8b e8be 6a74 193d
00000030: fed6 c1bd 809d f9be c952 753f ed64 d1bd
00000040: 1f27 823f 6353 863f 35b6 25bd 827a 0dbe
00000050: a8ae 8a3f f9ab 48c0 c186 8dbc be75 ebbd
00000060: 8a77 2dbe 0e80 9a3f d41a e7bd 7854 883f
00000070: da4d 213e 9d04 f93d 7f2c 98c0 2955 e8be

layer3.0.weight f4 [5, 7712]
0.49356982 0.4696554 0.44090578 0.46717936 0.47281593 0.4385537 0.46489927 0.42936122
0.44103375 0.46470252 0.4581502 0.40978765 0.47279763 0.34209654 0.37063688 0.4216739
0.442048 0.48222232 0.45847234 0.4313632 0.46659708 0.42453992 0.56319237 0.5673269
0.52935296 0.44193214 0.47754818 0.4477131 0.5933787 0.5577216 0.3812648 0.4185025
0.41002503 0.48025268 0.45403475 0.32190487 0.3382803 0.3938499 0.4013187 0.28743574
0.32178706 0.37517306 0.45649394 0.35811812 0.3001333 0.33045304 0.41624808 0.39412716
0.32263523 0.3078111 0.3268665 0.38620234 0.3146152 0.05163594 0.2008967 0.3486454
0.35213625 0.4371301 0.41504848 0.16231397 0.11945169 0.23498975 0.18989867 0.008278311
-0.01835818 0.057262667 0.24990024 0.35301602 0.36277494 0.34062657 0.32972202 0.25283253
0.18307167 0.16341467 0.27888536 0.3605411 0.047486555 0.0364431 0.053222965 0.17677933
0.321458 0.26849285 0.22632915 0.2777293 0.49137983 0.32394844 0.25763306 0.01834661
0.101098515 0.18533243 0.033935294 0.17844461 0.07894325 0.084398136 0.06487249 0.11518226
0.14819765 -0.0031245844 0.020890152 0.078608036 -0.017319808 0.24898498 0.12107723 -0.028855748
0.042640924 0.10975781 -0.08626016 -0.07816493 0.032671865 -0.032920994 0.14919874 0.10602155
-0.065909244 -0.030019451 0.05462327 0.00054203375 -0.17389713 -0.010312875 -0.026734885 -0.11121342
0.0486842 0.0075259996 0.063207544 0.10319021 0.08371404 -0.0073032547 0.015439343 -0.010206758
0.0014496696 -0.036041662 -0.0088439165 -0.014411505 0.14973123 -0.053768735 -0.08058521 -0.025926577
0.058912877 0.056127746 0.016703358 -0.041155353 0.019826826 0.03445208 0.0103839645 -0.023607742
0.06917815 0.07541757 0.0077750026 0.047237866 0.003865068 -0.023412066 -0.0033535052 -0.037886456
-0.15407318 -0.14430776 0.037421793 -0.024455106 0.007086804 0.059227437 -0.011389708 -0.049366325
-0.008431409 0.27398393 -0.06884278 -0.042067397 0.38783312 -0.009086973 -0.059968874 0.2528989
0.08989003 -0.011677283 0.10273553 -0.10420312 -0.09903787 0.12750651 -0.0710895 -0.13474809
-0.0011883846 0.11343225 0.06827952 -0.013710242 -0.04307353 -0.08068669 0.07024948 0.012482911
0.019014083 0.024337793 0.045193892 -0.04906983 -0.01466521 -0.06468099 -0.03613938 0.0059214924
-0.08665012 -0.10432966 -0.024704201 -0.05588281 -0.019008545 -0.006375785 -0.029355759 -0.14992248
-0.054404862 -0.0063376497 0.053412408 0.0037293495 0.0033115384 0.09430825 -0.022770276 -0.052079305
0.0011729244 -0.0034137305 -0.06412138 -0.08478454 0.094257034 -0.033998683 0.05884059 0.12651584
-0.0471442 0.096753106 0.0055398447 -0.009573531 0.092615366 0.07875465 -0.23298506 0.20736344
0.24513511 -0.072701864 -0.01267199 0.07371599 0.23091696 0.013578264 -0.013284127 -0.0029180178
0.049027726 -0.041366402 -0.06693291 -0.017655581 0.055514894 0.07080722 -0.09284676 -0.074249715
0.053404767 0.47874683 0.44672874 0.4877586 0.4317341 0.48391166 0.44888067 0.42040393
0.45890376 0.44540706 0.48048213 0.44939482 0.47115418 0.49181592 0.44091222 0.47651017
00000000: 2fb5 fc3e ac76 f03e 67be e13e 2232 ef3e
00000010: ee14 f23e 1c8a e03e 4707 ee3e 3cd5 db3e
00000020: 2dcf e13e 7ded ed3e aa92 ea3e b0cf d13e
00000030: 8812 f23e 4727 af3e 1ec4 bd3e a4e5 d73e
00000040: 1e54 e23e d8e5 f63e e3bc ea3e a3db dc3e
00000050: d0e5 ee3e 4c5d d93e 602d 103f 563c 113f
00000060: ad83 073f ee44 e23e 3281 f43e a73a e53e
00000070: abe7 173f d8c6 0e3f 2435 c33e f645 d63e
00000080: cdee d13e aee3 f53e 3e77 e83e b7d0 a43e
00000090: 1333 ad3e b2a6 c93e a579 cd3e c72a 933e
000000a0: 46c1 a43e af16 c03e 93b9 e93e 425b b73e
000000b0: 12ab 993e 2431 a93e 781e d53e 09cb c93e
000000c0: 7230 a53e 6b99 9d3e 0c5b a73e 50bc c53e
000000d0: 3e15 a13e 3580 533d ddb7 4d3e a681 b23e
000000e0: 344b b43e 84cf df3e 3c81 d43e a235 263e
000000f0: 16a3 f43d 27a1 703e cc74 423e c1a1 073c
00000100: e563 96bc 428c 6a3d d9e5 7f3e 84be b43e
00000110: a3bd b93e 9b66 ae3e 53d1 a83e 4473 813e
00000120: 2477 3b3e 2d56 273e 10ca 8e3e d898 b83e
00000130: 4381 423d 5c45 153d 5300 5a3d a405 353e
00000140: 2596 a43e e577 893e d4c2 673e 8932 8e3e
00000150: 2396 fb3e 92dc a53e 7be8 833e a14b 963c
00000160: bd0c cf3d c9c7 3d3e bcff 0a3d 2fba 363e
00000170: 00ad a13d eed8 ac3d dedb 843d ade4 eb3d
00000180: 20c1 173e d4c5 4cbb d321 ab3c 40fd a03d
00000190: 45e2 8dbc ebf5 7e3e 57f7 f73d e462 ecbc
000001a0: 40a8 2e3d b4c8 e03d 2ba9 b0bd ef14 a0bd
000001b0: efd2 053d 2ad8 06bd 8ec7 183e d421 d93d
000001c0: 6dfb 86bd 5aeb f5bc a6bc 5f3d 4517 0e3a
000001d0: 1712 32be 55f7 28bc 1e03 dbbc ddc3 e3bd
000001e0: 1569 473d a99c f63b f572 813d 6455 d33d
000001f0: 4472 ab3d 2450 efbb 4cf5 7c3c 3f3a 27bc
00000200: d702 be3a 6ca0 13bd 13e6 10bc 3c1e 6cbc
00000210: 2553 193e 9b3c 5cbd dc09 a5bd f963 d4bc
00000220: a14e 713d 35e6 653d 7bd5 883c 8492 28bd
00000230: de6b a23c a01d 0d3d 8121 2a3c 0665 c1bc
00000240: 46ad 8d3d 8774 9a3d 73c5 fe3b 7e7c 413d
00000250: 154d 7d3b a9ca bfbc 7bc6 5bbb d42e 1bbd
00000260: 5cc5 1dbe 6ac5 13be 9847 193d 1356 c8bc
00000270: 6c38 e83b 7898 723d e69b 3abc 5834 4abd
00000280: e423 0abc 9f47 8c3e 72fd 8cbd dd4e 2cbd
00000290: 1092 c63e 87e1 14bc eca1 75bd f77b 813e
000002a0: 4418 b83d 1352 3fbc 0167 d23d 7268 d5bd
000002b0: 5ed4 cabd 1191 023e 5f97 91bd 67fb 09be
000002c0: 92c3 9bba 2b4f e83d 22d6 8b3d eca0 60bc
000002d0: df6d 30bd 103f a5bd f6de 8f3d 2085 4c3c
000002e0: 6cc3 9b3c 0d60 c73c 3b1d 393d 72fd 48bd
000002f0: 5946 70bc 7877 84bd e306 14bd 1409 c23b
00000300: 9e75 b1bd caaa d5bd 7760 cabc 60e5 64bd
00000310: cfb7 9bbc f6eb d0bb 7d7b f0bc 4785 19be
00000320: a2d7 5ebd 0fac cfbb f8c6 5a3d 1a68 743b
00000330: 6506 593b af24 c13d bb88 babc 1c51 55bd
00000340: d0bc 993a e5b8 5fbb 1252 83bd 84a3 adbd
00000350: d509 c13d 3442 0bbd d502 713d 5e8d 013e
00000360: 471a 41bd 7e26 c63d 9687 b53b 4dda 1cbc
00000370: 20ad bd3d 1e4a a13d a393 6ebe 1557 543e
00000380: b304 7b3e b7e4 94bd 2e9e 4fbc 69f8 963d
00000390: 7f75 6c3e 5e77 5e3c aba5 59bc 373c 3fbb
000003a0: 4cd1 483d d16f 29bd 1f14 89bd 70a2 90bc
000003b0: 9663 633d 6003 913d 7126 bebd 3c10 98bd
000003c0: f5be 5a3d 4e1e f53e a1b9 e43e 7fbb f93e
000003d0: 410c dd3e 45c3 f73e b0d3 e53e 2f3f d73e
000003e0: 6ff5 ea3e 650c e43e c101 f63e 1417 e63e
000003f0: 1f3b f13e 4ccf fb3e 3fbf e13e 24f9 f33e

layer3.0.bias f4 [5]
4.9260845 5.1783376 5.1153293 5.3845563 5.530076
00000000: 7ca2 9d40 f1b4 a540 c7b0 a340 494e ac40
00000010: 62f6 b040
