ConvNetState.ckpt (torch_old, 173447 bytes, 6 tensors)

layer1.0.weight f4 [16, 2, 7]
00000000: 3aad b63c 0f77 16be 4295 e53d 7287 a8bd
00000010: 9596 863e 62e3 7fbe 4bf8 25bd 3cb6 cd3d
00000020: 0059 e3bd b661 593e 5392 73bd d492 913d
00000030: 1079 f6bd 8ec8 fabd 0545 893c d2cb 2c3e
00000040: 7a0c 3d3d a9a6 8cbe 7989 18be beb0 adbc
00000050: b1f1 883c 0c68 723d d949 4ebe b4ee 03be
00000060: 6b95 343e 58c5 db3c cf11 eb3c d96b 09bc
00000070: 1a23 a23d 10d3 d63d 3cad 3ebe b3cf e5be
00000080: bb8a 92be 94be 633e 5577 963e 3cd8 dabf
00000090: 870b 5c3e 14b0 b9bd 93a1 403e 875d 4ebf
000000a0: 470f 44bf ab6a 6fbf f09a 883d 5c80 9bbe
000000b0: ca0c 89be 32e6 c2bd 002f d2be 2958 f4be
000000c0: 726c 20be 5872 c33e b6e0 05be 3afe 97bd
000000d0: 73ec 313e c7b7 6abd ebb7 8bbe c59a 4abd
000000e0: b918 5ebe 01ce 383d 42c6 52bc 0394 98bd
000000f0: 8a98 e6bd 694f 9d3d 0440 63bb 43f4 45be
00000100: f4e6 ef3c 997d 66be 5dd5 3dbd a461 a2bd
00000110: 76e3 13be 877e 50bc 9ec7 b7bd 9a15 ff3d
00000120: 0448 013e eabc 043e 2c9a 7fbd 2c55 18bc
00000130: 5332 1c3e 73eb 31be 837b 37be 4add 67be
00000140: ff50 703e c6d6 4ebd f26c 5e3e 5533 17be
00000150: 827e 993d 025e a3be 1f76 fe3d 4248 9d3d
00000160: 24f9 393e ec9b e7be f20a adbe c401 28bd
00000170: 315a f6be 9ea6 d2bd daf5 cf3e 1567 843e
00000180: eb7e 41be 2787 e7be 98b4 91be 4dc2 98be
00000190: 3686 403e 7ee8 72bd e740 ec3d 4d12 c4bc
000001a0: e64c 5dbe d032 bebc 55cb 7fbe 7b43 f4bd
000001b0: 4143 f7be e622 613d 93a0 d8be a9f4 37be
000001c0: cf29 11be c358 74be 0756 a33d e61d 09be
000001d0: 01dc 453e 236c 5e3e d458 9fbe fa5c 59be
000001e0: 0dc3 a0be d96c 5dbd 3184 653e 6d95 4abd
000001f0: 48ee 4cbe ffa1 08be b0e9 1abe a153 52be
00000200: 0e09 833e 9502 4cbe 7c2a 8abe 2012 383e
00000210: 3b2d 063e 5958 f33c a51f 98be 0b67 553d
00000220: a090 1ebe 9093 7cbc 44af d93d 8688 51bc
00000230: bba2 f1be 9e68 463d 6123 80bd f102 c6be
00000240: 61bd 51be 4416 97be 66a6 42bd 275b fbbc
00000250: b123 68be 484f 0cbc 7edb aabe 04a3 d5be
00000260: ac60 543f f0df 57bd ef20 933d 98c4 203e
00000270: 9000 96be 2fb0 6fbe 3fe9 a13d f4be a23d
00000280: 2b53 793d 413c 63be feb2 86bd 78dc b3bd
00000290: 907a 763e 2968 4c3e eb23 543e 9bd7 aebd
000002a0: 1945 7e3e 84e5 473e e0e0 b33d 2140 0a3e
000002b0: bf39 00be 353f c7be 51e1 0c3e 4962 c9bd
000002c0: 0e33 133e 3420 13be 5f12 82be 463f 093e
000002d0: 2bc7 883d b87e 66be 46c6 2cbe d509 153e
000002e0: 4945 87be 51fc 053e 0d07 8e3d 2ca1 bdbd
000002f0: 5c82 70be d8b0 443d 2543 aabd e7b9 acbe
00000300: 78fb 0ebd 3390 8cbe 29f4 49be 5fd9 043e
00000310: a44c 1f3d 23b5 6ebe 61eb bfbd 0b6f a4be
00000320: 0449 afbe d4d6 8bbd 8ded e63c 861b fb3d
00000330: 454d 01be 0a87 973c 1247 823d b28e e93d
00000340: 39e1 94be 1a57 573e 2ac8 dabd a4ab a8be
00000350: a10e 75be 4a66 d0be 942b 2ebe 5f3a 08bc
00000360: 7f8a 123e 7b5b 3c3e 732a 0cbd a312 f8bd
00000370: 489a b73d 149a debd 8097 82bb 73b3 153d
0.022299398 -0.14693855 0.11210109 -0.08228959 0.2628676 -0.24989083 -0.040519994 0.10044524
-0.1110096 0.2122868 -0.059465718 0.07108083 -0.120348096 -0.12245284 0.016756544 0.16874626
0.046154477 -0.27470902 -0.14896192 -0.021202441 0.01671681 0.059181258 -0.20145358 -0.12884027
0.17635123 0.0268275 0.028695015 -0.008387529 0.07916851 0.10489476 -0.18620771 -0.44885024
-0.28621468 0.22240669 0.29387918 -1.709724 0.21488772 -0.09066787 0.18811636 -0.8061146
-0.7658581 -0.9352214 0.06670177 -0.30371368 -0.2676757 -0.095165625 -0.41051483 -0.4772351
-0.15666369 0.38173175 -0.13074002 -0.07421537 0.17375354 -0.05730417 -0.27288756 -0.049464006
-0.21689118 0.045118336 -0.012864651 -0.07450106 -0.11259563 0.07681162 -0.0034675607 -0.1933146
0.029284932 -0.22508849 -0.046346057 -0.0792878 -0.14442238 -0.012725479 -0.08973621 0.12455292
0.12625128 0.1296269 -0.06240289 -0.00929765 0.15253572 -0.17374973 -0.1791821 -0.22643009
0.23468398 -0.050497793 0.21721247 -0.14765675 0.074948326 -0.3190766 0.124248736 0.07679798
0.18161446 -0.45236146 -0.33797413 -0.04101731 -0.48115686 -0.10285686 0.40617257 0.25859895
-0.18896072 -0.452203 -0.28458095 -0.2983574 0.18801197 -0.059303753 0.11535817 -0.023934508
-0.21611366 -0.023217589 -0.24979909 -0.119269334 -0.48293498 0.054964922 -0.42310008 -0.17964424
-0.14176105 -0.23861985 0.07975393 -0.13390312 0.19322206 0.21720938 -0.31122458 -0.21226874
-0.31398812 -0.054058883 0.22413708 -0.04945891 -0.20012772 -0.13343047 -0.15128207 -0.20539714
0.25592846 -0.1992286 -0.26985538 0.17975664 0.13103192 0.029705213 -0.29711643 0.052100223
-0.15484858 -0.015416041 0.106291324 -0.012788897 -0.47194466 0.048439614 -0.06256748 -0.3867412
-0.20482399 -0.29509175 -0.04752197 -0.030683113 -0.22669865 -0.008563824 -0.33370584 -0.41725934
0.8296001 -0.052703798 0.07184016 0.15699995 -0.29297304 -0.23407052 0.07905816 0.07946578
0.06087033 -0.22190954 -0.06577109 -0.087822855 0.24070191 0.19961609 0.20716827 -0.08537217
0.24831046 0.19521147 0.08783126 0.13501026 -0.12522028 -0.3891541 0.13757826 -0.098331995
0.14374945 -0.14367753 -0.2540464 0.13403043 0.06678613 -0.22509277 -0.1687251 0.14554532
-0.26420048 0.13084532 0.069349386 -0.09259257 -0.23487228 0.048020214 -0.08313588 -0.33735582
-0.034907788 -0.27453765 -0.19722046 0.12973545 0.03889145 -0.23311286 -0.09371067 -0.3211597
-0.34235394 -0.068280846 0.028189445 0.12261109 -0.12627132 0.018497009 0.06361212 0.1140417
-0.2907808 0.2102932 -0.106827095 -0.3294345 -0.23931362 -0.4070304 -0.17008811 -0.008314698
0.14310645 0.18394272 -0.03422017 -0.1211293 0.08964974 -0.10869232 -0.0039853454 0.03654809

layer1.0.bias f4 [16]
00000000: 6289 12bc 299f d4bd a0e8 10be 5efb d6bd
00000010: 6cae 003f ead6 19bf 030b 18be 4dec 273f
00000020: b086 c4bd f732 b83e 00fc c1bd 53bd d3be
00000030: 0d23 e8bd 97a4 53be c1d2 10be 461b 2cbe
-0.008943887 -0.1038192 -0.1415124 -0.10497163 0.50266147 -0.6009356 -0.1484795 0.6559494
-0.09596002 0.35976383 -0.09471893 -0.4135538 -0.113348104 -0.20668255 -0.14142896 -0.16807279

layer2.0.weight f4 [32, 16, 7]
00000000: ca82 533d a337 d93d 7e7a 923d 5756 4c3e
00000010: 6d5c 933c 874f 02bd c9c3 9e3d 9e84 343d
00000020: 52f9 f6bc f8c6 933d becb 72bd f4a2 d0bd
00000030: c655 043d 177a 643c 156a dcbd 3c0e 44bd
00000040: 9a1b 7abc e20b cbbd 7349 dabe 8325 cbbe
00000050: 040d 08be f2fb e03d beb0 2fbe a9f3 19bf
00000060: c83a 2cbf c2af c5be fb09 95bd aeee 9bbd
00000070: 2b05 133d 6c78 a53d 603f 38bd 1ad3 823d
00000080: d67d 49bd d32c cc3d 40f0 903d 9cdc 8c3b
00000090: 180d 3f3c 7b26 84bc 001d 793d b5ea 933c
000000a0: 0485 4c3b 5822 30bb 3fbf 8dbc faf3 4e3e
000000b0: 0048 2ebe 46a4 0cbe e70f 36be 11fa 3b3e
000000c0: 1c19 dc3c 7dcd 4b3e 6ac9 c9be 5411 fe3e
000000d0: 3ec8 a73d eb1e 863d 8b97 813e b19d 423e
000000e0: 3f0b bf3d ef91 2abc 26d5 aabb 34b3 273d
000000f0: 4f35 cdbd c24f 1ebe befb 04be bfd3 65bd
00000100: ae07 4dba 7f3b 35bc 9e12 ef3d 39b8 063d
00000110: 965c f0bc 3cc5 673d a82f 043e bb02 e2bd
00000120: 48dc 64be 61cb 69be 3ada 88be 32fe f9bd
00000130: 482a 61bd 1294 2bbc a841 e1bb 6af2 3b3c
00000140: 2ccc 8b3c ef81 c73c 2096 4b3c 23f9 96bb
00000150: 04ea 433c d568 5b3c df69 9a3c 3193 02bc
00000160: 2226 c0bc 4a0e c0bc 6d00 33bc e958 bdbd
00000170: 4da2 7739 cbac 9e3d 9cb5 8fbd a8cc debd
00000180: e7db 0cbe 7645 b4bd a638 12bd 80a8 dcbd
00000190: 9601 ffbd b2e5 5fbe 7ecd a1be ca7c 33be
000001a0: 9c37 37be 6975 21be 5bc0 80bd b38a a1bd
000001b0: 6527 08be 362c bbbe 3dc3 68be 7c8b 13be
000001c0: 7c52 d8bc 7740 61bd 28e1 c23d 0a69 25bd
000001d0: c74f 7dbd 7c68 853d 4877 cd3d 4d6b adbd
000001e0: 5999 54bd 2b0e ca3d 81f6 a1bd d6f4 82bd
000001f0: 7130 7f3d ce3d 0e3c 9c14 10be 7625 bb3d
00000200: 4ab4 a3bd d4bd 02be e56f 20bb 718a 4cbe
00000210: d2d5 71be ba4a 25bf d428 c4be 67cd dbbd
00000220: 6b1b abbc e09b 8abb b9a7 2cbd ba15 5f3d
00000230: 190a 833d 271e 23be 92af 323d 4e4a 06be
00000240: 9e7e da3d 1f7c b0bd 1614 a4bc 31a9 91bd
00000250: c0ed 54bd 821d 14bd d5b7 32bd 717d 2aba
00000260: fd74 233c 1de2 013c 0a0d 83bf aec8 c8bd
00000270: 3ba0 22bd c90b 86be 71d1 94be 78cc 8ebc
00000280: 2f13 0bbe 045d 8a3d f538 c1bd fcec cf3d
00000290: 14cf f2ba 8578 d03d 389f 8e3e 2868 85be
000002a0: 8423 0ebe 4608 04bd d91c 07be 6a91 f5bd
000002b0: cba0 a93c ab36 9dbd 08ba febd c967 9fbd
000002c0: 1586 b7bd 5563 cd3c edec 4bbd 3ed9 d7bd
000002d0: 042e 76bd 8cb9 62bd c2c0 fc3c 1c84 0a3f
000002e0: e09e 21bf 58d7 b7be 65ce c0be c579 d7be
000002f0: 6897 99be dcd3 e83b 6a7d a6bd b0f5 bb3d
00000300: 1a27 143c 2dd5 2e3d 980a 983d 7f92 fb3d
00000310: c56b 0cbe 85b1 3cbe 09e2 7cbe d1c0 0cbe
00000320: 7696 10be 2eac e8bd dfc7 17be 469b 03be
00000330: 691c cbbd d689 c7bd 5a87 183d 7ee5 f6bd
00000340: a2f5 4bbd 6d14 f4bd b0df a3bd 5281 84bd
00000350: 1f9f 16be 2bf0 0bbc f98f e2bc d469 0bbe
00000360: 4557 90bd 6740 89bd d228 6bbe 1a3c ddbe
00000370: 084d efbd 04a7 70be 3be1 8abe e8b5 3dbe
00000380: ed0c 2fbd e155 d7bd 481a fa3c e640 02be
00000390: 74eb cfbc 1ffd 19bd 52b8 13bc 3b3b f6bd
000003a0: 02f0 80bc 0a84 473b 7f9c ffbd 548f f23c
000003b0: 1901 4d3d a84d b1bd 65b9 873e e7ea e5bd
000003c0: 858e 03be 51d6 fcbd b533 da3c 0a2d 41bd
000003d0: 778b 1dbc 45ff 153f 3101 9dbe 1b20 17be
000003e0: 3da7 5d3d e0db b0bc 3f08 c6bc d06a a3bd
000003f0: 08fc 453d 416f 92bd 8e0d 61bd 1a6d 03be
0.051638402 0.10606315 0.0715227 0.19954811 0.017988408 -0.031814124 0.07752187 0.044071786
-0.030148182 0.07215685 -0.059276335 -0.10187331 0.032308362 0.013945124 -0.10762421 -0.047865137
-0.01526537 -0.09914376 -0.42634162 -0.39677057 -0.13286215 0.10985555 -0.17157266 -0.6013742
-0.67277193 -0.38610655 -0.07277294 -0.07613884 0.0358936 0.08079609 -0.044982314 0.06387921
-0.049192272 0.09969487 0.07077074 0.0042987596 0.011660837 -0.01613163 0.060818672 0.018056253
0.0031207213 -0.002687594 -0.017303107 0.20210257 -0.17019653 -0.1373454 -0.17779504 0.18357112
0.026867442 0.19902606 -0.3941148 0.49622595 0.0819249 0.06548866 0.2531093 0.19005467
0.09328317 -0.01041077 -0.0052133976 0.040942386 -0.100199334 -0.15460113 -0.12986657 -0.05611014
-0.0007821274 -0.011061548 0.11673473 0.032890532 -0.029341023 0.05658458 0.12908804 -0.11035677
-0.22349656 -0.22831489 -0.26728994 -0.12206687 -0.054971963 -0.010472314 -0.006874282 0.01147137
0.01706513 0.02435395 0.012425929 -0.004607336 0.011957649 0.013391693 0.018849311 -0.0079696635
-0.023455683 -0.023444314 -0.0109253945 -0.09245474 0.00023616217 0.077478014 -0.07017061 -0.10878879
-0.13755761 -0.08802311 -0.035698555 -0.10774326 -0.12451474 -0.21864966 -0.3160209 -0.17528072
-0.17892307 -0.15767445 -0.06286689 -0.07887783 -0.13296278 -0.36557168 -0.22730727 -0.14408678
-0.02640652 -0.05499312 0.095156014 -0.040383376 -0.06184366 0.065140694 0.10032517 -0.084677316
-0.051904056 0.098659836 -0.07908345 -0.06394355 0.062302057 0.008681728 -0.14070362 0.091380045
-0.07993372 -0.12767726 -0.0024480757 -0.19974686 -0.23616722 -0.6456715 -0.383124 -0.10732537
-0.020887097 -0.0042300075 -0.04215214 0.05446408 0.0639841 -0.15929471 0.04362447 -0.13114282
0.106686816 -0.08617424 -0.020029109 -0.07112349 -0.05198455 -0.036160953 -0.043632347 -0.00065036776
0.009976623 0.007927445 -1.0238354 -0.098039016 -0.03970359 -0.26180866 -0.2906604 -0.017431483
-0.13581537 0.067560226 -0.09434692 0.10152623 -0.0018524849 0.10179237 0.2785585 -0.26056027
-0.13880736 -0.032234453 -0.13194598 -0.11990626 0.020706555 -0.07676443 -0.124378264 -0.07783467
-0.08961121 0.02507178 -0.049786497 -0.105394825 -0.060102478 -0.055352733 0.030853633 0.5410783
-0.6313305 -0.35906482 -0.37657467 -0.4208509 -0.29998326 0.0071053337 -0.081293896 0.091777205
0.009042526 0.04268377 0.074238956 0.12283801 -0.13712986 -0.18427093 -0.246956 -0.13745429
-0.14119896 -0.11360966 -0.14822339 -0.12852201 -0.09917528 -0.09743087 0.037238456 -0.12055491
-0.0497948 -0.119179584 -0.080016494 -0.064699784 -0.14709137 -0.008541147 -0.027656542 -0.13614589
-0.07047895 -0.06701737 -0.2296479 -0.43209916 -0.116846144 -0.23501211 -0.27124962 -0.18526423
-0.042736936 -0.10514427 0.03053011 -0.1272007 -0.025380827 -0.03759491 -0.009016113 -0.12023016
-0.015739445 0.0030443692 -0.12481021 0.02960936 0.050049875 -0.0865739 0.26508632 -0.11226445
-0.12847336 -0.12345565 0.026635984 -0.047162093 -0.009615771 0.58592635 -0.3066497 -0.14758341
0.05411457 -0.02158922 -0.024173854 -0.07979357 0.04833606 -0.07150126 -0.054944567 -0.12834588

layer2.0.bias f4 [32]
00000000: b4d6 6c3f 8e22 843f d83a 9dbd 3e3c 54bd
00000010: f4ae ca3c 299d 563f 0c73 94bc 6900 2c3d
00000020: aeeb e0bd 0b2f 613f e30f 6a3f a487 863f
00000030: 349a 9e3e 9960 503f 2446 adbf 1563 703f
00000040: 3d85 f73d e796 183d 2fc5 f1bd 8307 41bc
00000050: c489 453f 5213 d8bd 8ea5 38be 45a5 803f
00000060: b883 2abd 4c41 573f f48e 3dbe 7a3f 6f3f
00000070: ef61 1a3d 77c3 823f d7cd 673f 5796 923b
0.9251511 1.0323045 -0.07677239 -0.051815264 0.024741627 0.8383356 -0.018121265 0.04199258
-0.10982452 0.87962407 0.9143049 1.0510144 0.30977023 0.81397396 -1.353703 0.9390119
0.1208596 0.037253287 -0.11805188 -0.011781576 0.7716334 -0.1055056 -0.18031904 1.0050436
-0.041629523 0.8408401 -0.18511564 0.9345623 0.037691053 1.0215901 0.9054846 0.0044734883

layer3.0.weight f4 [5, 7840]
00000000: 3975 a03e 7f43 963e 8f79 9e3e 7092 923e
00000010: d64d 8d3e 6a24 933e 36c0 8f3e 5727 543e
00000020: 1402 793e 0c9d 8f3e 7ab0 843e c4c2 843e
00000030: 32bf 503e adbb a13e 3545 983e cc76 9a3e
00000040: 97af 843e 53e7 813e f397 2c3e b689 843e
00000050: 6c32 363e 1409 5a3e e77e 563e b4c4 3d3e
00000060: d0ea 513e 03c7 613e 3329 2a3e 5821 7b3e
00000070: ecc6 613e 6561 673e e89f 683e d010 603e
00000080: aad2 3f3e e33c 833e a58e 863e 8c30 883e
00000090: 55a4 8d3e ae95 493e 019a 823e 9917 703e
000000a0: 64b4 5f3e af00 6f3e c2ee 633e cff8 903e
000000b0: de14 613e bc3c 853e 7f1e f03d 11de 8c3e
000000c0: 617d 423e 19c5 0c3e 5df2 0c3e eccd 463e
000000d0: 6bb2 873e 0cab 733e 0441 613e 0643 8e3e
000000e0: 537a 883e 018d 2b3e 7830 573e 3126 403e
000000f0: 6457 183e 3ef5 a13d f00c 2f3e 7e25 4e3e
00000100: 599c ec3d d5dc 9b3e f3f6 163e c661 1ebd
00000110: a391 f03d 547f 51bc d97f b2bd 1e46 9f3c
00000120: 7378 093c f9e3 ab3d 962f 3a3e a8bc 653e
00000130: 0cfc 333e dea9 593e 10e0 363e 16bf 463e
00000140: cd1f 113e 0917 dc3d 241e 053e 8f5f e63d
00000150: 30fd 903d 0655 f43d cd28 363e 7097 203e
00000160: e24e 0b3e 7729 113d 877a 303e 47ef 013e
00000170: 728c 733e e909 313e 1709 d13d 340c c23d
00000180: 2a49 0d3e bc76 fc3d 696d 1a3e d849 333d
00000190: 83ce 053d a020 233e 4482 cd3d 0a4e 573d
000001a0: b372 d23d 426a fa3d e370 343c 3c8d 363e
000001b0: 1f56 c1bc 9e63 6b3d bfaa 963c f434 8e3d
000001c0: d073 1cbc 2332 403d eead b13b 64f5 bfbc
000001d0: 802c 06bc 0434 55bc b734 ba3d 519e 143d
000001e0: fc2e 9a3d 367e 5f3d ddcf 863c 30c0 96bc
000001f0: 1205 073c 1437 473d 23fd f23d 4f81 123e
00000200: 0d61 b13d 7e65 723b ea4f 373c f444 b2bc
00000210: 9c2e 983d 9d9b 41bb 24da 553e 0f3e 4b3e
00000220: 854c 1e3d 04a6 eb3c 777a 823d d504 b53d
00000230: 5d75 133c 7d5d 393c 52fa 343b aea9 633d
00000240: 672a e13c 9b03 fbbc 3278 cf3c ca59 fa3c
00000250: 4999 1d3c 9fa5 bb3c ffa7 863d c50f 2f3d
00000260: a325 a43c 2243 123e 58a0 013e e242 413d
00000270: e632 143e ca9e d73d 7aaa a93d 0e02 9c3d
00000280: 903d ee3d d986 6c3e d93d c03d 57c5 3c3e
00000290: 426c 1a3e 1e4f d0bc cdb0 133c 6594 253d
000002a0: b070 11bd 4ed1 903d decc 42bd 91c2 af3c
000002b0: 93ce 04bd fb30 44bc b870 71bd 33ab 4f3d
000002c0: 87e2 363d 761a 4dbd 06cf cf3c e208 833d
000002d0: d353 b63c 5405 a139 41d4 bdbd 8cde d0bc
000002e0: 769e df3c 266d 0f3d 30b7 9a3d 9ed8 463b
000002f0: 1fcb b03c 0457 f03b 536f d039 1909 82bc
00000300: 30f2 ee3b 4fde 3a3c 37f8 7d3d 54fe 41bc
00000310: 33fb 1cbc 204a 0ebd a516 dbbb f3a0 87bc
00000320: f9a4 07bd 84d5 113c cbd2 8d3c b8c7 fdbc
00000330: 686a 25bd f274 36bd 203d 88bd a9b8 50bc
00000340: c3c5 4bbd 2911 72bc e829 abbc d07f b23c
00000350: c1d6 e7bc 0b63 9ebc 5847 a43c ba08 903c
00000360: b786 d93c 8986 a4bb d4e7 793d f584 4b3d
00000370: f9e3 45bd 496f 76bc d1b6 e73b 0121 b43c
00000380: f576 7c3c fb55 ecbb 56d5 24bc fb31 243c
00000390: 325f cfbc 1ca0 2abd b95b 02bd 19e6 b9bc
000003a0: 05f7 8b3c da5f 753c cd18 cdbc 9da0 e4bc
000003b0: 9500 6bbb 923d 13bc 56e1 ed3c ac2a b13a
000003c0: 4031 adbc 39d0 7b3b d719 c33b 04c5 0a3d
000003d0: a110 ddba 17c1 fe3e 6ce5 ee3e 2432 f73e
000003e0: aeed fc3e f9a0 e13e 90dd e43e ac2f de3e
000003f0: 5c31 db3e 4f10 e83e 2c93 c73e 992f ba3e
0.31339434 0.2934837 0.30952117 0.28627348 0.27598447 0.2873872 0.28076333 0.20718132
0.24317199 0.28049505 0.2591589 0.25929844 0.20385435 0.31588498 0.297403 0.3016876
0.25915214 0.253718 0.16854839 0.25886315 0.17792672 0.21292526 0.20946847 0.18532068
0.2049973 0.22048573 0.16617279 0.24524438 0.22048539 0.22595747 0.2271725 0.21881413
0.18732706 0.2563239 0.26280704 0.26599538 0.27664438 0.19686005 0.2550812 0.23446502
0.21846157 0.23340105 0.22259048 0.28314826 0.21980616 0.260229 0.11724567 0.27513173
0.18993141 0.13747062 0.13764329 0.1941449 0.2650331 0.23795718 0.21997458 0.2778551
0.26655826 0.16753007 0.21014583 0.18764569 0.14877087 0.07908104 0.17094779 0.2013149
0.115532584 0.3044192 0.14742641 -0.038667463 0.11746528 -0.012786705 -0.08715791 0.019442614
0.008390534 0.08393092 0.18182215 0.22435248 0.17576617 0.21256205 0.1785891 0.19408831
0.14172287 0.10746581 0.12999779 0.11248695 0.07079542 0.119302794 0.17789002 0.15682769
0.1360431 0.035439935 0.1723424 0.12688933 0.23784044 0.17288937 0.10206812 0.09474984
0.13797441 0.12327334 0.15080799 0.043771595 0.032667648 0.15930414 0.10034612 0.05256466
0.102757834 0.12227298 0.011013242 0.17827314 -0.023600636 0.05746805 0.018391965 0.06943694
-0.009549096 0.046922814 0.0054223454 -0.023432441 -0.008189321 -0.01301289 0.09092086 0.036283795
0.07528493 0.054563724 0.016456539 -0.018402189 0.008240955 0.04863651 0.11864688 0.1430714
0.08661089 0.0036986764 0.011188487 -0.021761395 0.07430765 -0.0029542216 0.20883995 0.19847892
0.038647193 0.028765686 0.063710146 0.08838812 0.00900015 0.011313793 0.0027615023 0.05558174
0.02748604 -0.030641368 0.025325868 0.030560393 0.009619066 0.022906123 0.065750115 0.04273965
0.020037478 0.14283422 0.12658823 0.047182925 0.14472541 0.105283335 0.08284469 0.076175794
0.11632836 0.23098315 0.093867965 0.18434654 0.1508036 -0.025428351 0.009014321 0.040424723
-0.035507858 0.07071172 -0.047558658 0.021455081 -0.032423567 -0.0119745685 -0.058945388 0.050700378
0.044649627 -0.050074063 0.025367271 0.06398179 0.022256767 0.00030712283 -0.09269 -0.025496744
0.02729724 0.0350162 0.075544715 0.0030341516 0.02158123 0.007334592 0.00039755795 -0.015873479
0.0072920546 0.011405542 0.062004294 -0.011840422 -0.009581375 -0.03473866 -0.006686049 -0.016556239
-0.033116315 0.008901004 0.017312428 -0.030979022 -0.04038468 -0.04454512 -0.06652284 -0.012739339
-0.049749147 -0.014774599 -0.020894006 0.021789461 -0.028300645 -0.019334337 0.02005355 0.017582286
0.026553495 -0.0050209207 0.061012104 0.049687345 -0.048313115 -0.015041181 0.007071354 0.021988394
0.015409221 -0.007212398 -0.010060629 0.010021682 -0.025313947 -0.0416566 -0.031825755 -0.022692727
0.017085562 0.014976466 -0.02503624 -0.027908618 -0.0035858501 -0.0089868475 0.029038113 0.0013516746
-0.021141648 0.003842367 0.005954008 0.033879295 -0.0016865918 0.4975669 0.4665941 0.48280442
0.49400085 0.44068125 0.4470029 0.43395746 0.42811096 0.45324942 0.3897947 0.3636444

layer3.0.bias f4 [5]
00000000: b907 893f 42d9 913f 3e4c 913f f324 953f
00000010: 818a 953f
1.0705482 1.1394427 1.1351392 1.1651901 1.1682893
